…
-480,"elapsed":1559,"user":{"displayName":"邱柏鎧","userId":"04478619653307828795"}}},"outputs":[{"output_type":"stream","name":"stderr","text":["Downloading: \"https://download.pytorch.org/models/resnet50-0676ba61.pth\" to /root/.cache/torch/hub/checkpoints/resnet50-0676ba61.pth\n"]},{"output_type":"display_data","data":{"text/plain":["  0%|          | 0.00/97.8M [00:00<?, ?B/s]"],"application/vnd.jupyter.widget-view+json":{"version_major":2,"version_minor":0,"model_id":"a87d10f1f8454784964346bd945ac228"}},"metadata":{}},{"output_type":"execute_result","data":{"text/plain":["ResNet(\n","  (conv1): Conv2d(3, 64, kernel_size=(7, 7), stride=(2, 2), padding=(3, 3), bias=False)\n","  (bn1): BatchNorm2d(64, eps=1e-05, momentum=0.1, affine=True, track_running_stats=True)\n","  (relu): ReLU(inplace=True)\n","  (maxpool): MaxPool2d(kernel_size=3, stride=2, padding=1, dilation=1, ceil_mode=False)\n","  (layer1): Sequential(\n","    (0): Bottleneck(\n","      (conv1): Conv2d(64, 64, kernel_size=(1, 1), stride=(1, 1), bias=False)\n","      (bn1): BatchNorm2d(64, eps=1e-05, momentum=0.1, affine=True, track_running_stats=True)\n","      (conv2): Conv2d(64, 64, kernel_size=(3, 3), stride=(1, 1), padding=(1, 1), bias=False)\n","      (bn2): BatchNorm2d(64, eps=1e-05, momentum=0.1, affine=True, track_running_stats=True)\n","      (conv3): Conv2d(64, 256, kernel_size=(1, 1), stride=(1, 1), bias=False)\n","      (bn3): BatchNorm2d(256, eps=1e-05, momentum=0.1, affine=True, track_running_stats=True)\n","      (relu): ReLU(inplace=True)\n","      (downsample): Sequential(\n","        (0): Conv2d(64, 256, kernel_size=(1, 1), stride=(1, 1), bias=False)\n","        (1): BatchNorm2d(256, eps=1e-05, momentum=0.1, affine=True, track_running_stats=True)\n","      )\n","    )\n","    (1): Bottleneck(\n","      (conv1): Conv2d(256, 64, kernel_size=(1, 1), stride=(1, 1), bias=False)\n","      (bn1): BatchNorm2d(64, eps=1e-05, momentum=0.1, affine=True, track_running_stats=True)\n","      (conv2): Conv2d(64, 64, kernel_size=(3, 3), stride=(1, 1), padding=(1, 1), bias=False)\n","      (bn2): BatchNorm2d(64, eps=1e-05, momentum=0.1, affine=True, track_running_stats=True)\n","      (conv3): Conv2d(64, 256, kernel_size=(1, 1), stride=(1, 1), bias=False)\n","      (bn3): BatchNorm2d(256, eps=1e-05, momentum=0.1, affine=True, track_running_stats=True)\n","      (relu): ReLU(inplace=True)\n","    )\n","    (2): Bottleneck(\n","      (conv1): Conv2d(256, 64, kernel_size=(1, 1), stride=(1, 1), bias=False)\n","      (bn1): BatchNorm2d(64, eps=1e-05, momentum=0.1, affine=True, track_running_stats=True)\n","      (conv2): Conv2d(64, 64, kernel_size=(3, 3), stride=(1, 1), padding=(1, 1), bias=False)\n","      (bn2): BatchNorm2d(64, eps=1e-05, momentum=0.1, affine=True, track_running_stats=True)\n","      (conv3): Conv2d(64, 256, kernel_size=(1, 1), stride=(1, 1), bias=False)\n","      (bn3): BatchNorm2d(256, eps=1e-05, momentum=0.1, affine=True, track_running_stats=True)\n","      (relu): ReLU(inplace=True)\n","    )\n","  )\n","  (layer2): Sequential(\n","    (0): Bottleneck(\n","      (conv1): Conv2d(256, 128, kernel_size=(1, 1), stride=(1, 1), bias=False)\n","      (bn1): BatchNorm2d(128, eps=1e-05, momentum=0.1, affine=True, track_running_stats=True)\n","      (conv2): Conv2d(128, 128, kernel_size=(3, 3), stride=(2, 2), padding=(1, 1), bias=False)\n","      (bn2): BatchNorm2d(128, eps=1e-05, momentum=0.1, affine=True, track_running_stats=True)\n","      (conv3): Conv2d(128, 512, kernel_size=(1, 1), stride=(1, 1), bias=False)\n","      (bn3): BatchNorm2d(512, eps=1e-05, momentum=0.1, affine=True, track_running_stats=True)\n","      (relu): ReLU(inplace=True)\n","      (downsample): Sequential(\n","        (0): Conv2d(256, 512, kernel_size=(1, 1), stride=(2, 2), bias=False)\n","        (1): BatchNorm2d(512, eps=1e-05, momentum=0.1, affine=True, track_running_stats=True)\n","      )\n","    )\n","    (1): Bottleneck(\n","      (conv1): Conv2d(512, 128, kernel_size=(1, 1), stride=(1, 1), bias=False)\n","      (bn1): BatchNorm2d(128, eps=1e-05, momentum=0.1, affine=True, track_running_stats=True)\n","      (conv2): Conv2d(128, 128, kernel_size=(3, 3), stride=(1, 1), padding=(1, 1), bias=False)\n","      (bn2): BatchNorm2d(128, eps=1e-05, momentum=0.1, affine=True, track_running_stats=True)\n","      (conv3): Conv2d(128, 512, kernel_size=(1, 1), stride=(1, 1), bias=False)\n","      (bn3): BatchNorm2d(512, eps=1e-05, momentum=0.1, affine=True, track_running_stats=True)\n","      (relu): ReLU(inplace=True)\n","    )\n","    (2): Bottleneck(\n","      (conv1): Conv2d(512, 128, kernel_size=(1, 1), stride=(1, 1), bias=False)\n","      (bn1): BatchNorm2d(128, eps=1e-05, momentum=0.1, affine=True, track_running_stats=True)\n","      (conv2): Conv2d(128, 128, kernel_size=(3, 3), stride=(1, 1), padding=(1, 1), bias=False)\n","      (bn2): BatchNorm2d(128, eps=1e-05, momentum=0.1, affine=True, track_running_stats=True)\n","      (conv3): Conv2d(128, 512, kernel_size=(1, 1), stride=(1, 1), bias=False)\n","      (bn3): BatchNorm2d(512, eps=1e-05, momentum=0.1, affine=True, track_running_stats=True)\n","      (relu): ReLU(inplace=True)\n","    )\n","    (3): Bottleneck(\n","      (conv1): Conv2d(512, 128, kernel_size=(1, 1), stride=(1, 1), bias=False)\n","      (bn1): BatchNorm2d(128, eps=1e-05, momentum=0.1, affine=True, track_running_stats=True)\n","      (conv2): Conv2d(128, 128, kernel_size=(3, 3), stride=(1, 1), padding=(1, 1), bias=False)\n","      (bn2): BatchNorm2d(128, eps=1e-05, momentum=0.1, affine=True, track_running_stats=True)\n","      (conv3): Conv2d(128, 512, kernel_size=(1, 1), stride=(1, 1), bias=False)\n","      (bn3): BatchNorm2d(512, eps=1e-05, momentum=0.1, affine=True, track_running_stats=True)\n","      (relu): ReLU(inplace=True)\n","    )\n","  )\n","  (layer3): Sequential(\n","    (0): Bottleneck(\n","      (conv1): Conv2d(512, 256, kernel_size=(1, 1), stride=(1, 1), bias=False)\n","      (bn1): BatchNorm2d(256, eps=1e-05, momentum=0.1, affine=True, track_running_stats=True)\n","      (conv2): Conv2d(256, 256, kernel_size=(3, 3), stride=(2, 2), padding=(1, 1), bias=False)\n","      (bn2): BatchNorm2d(256, eps=1e-05, momentum=0.1, affine=True, track_running_stats=True)\n","      (conv3): Conv2d(256, 1024, kernel_size=(1, 1), stride=(1, 1), bias=False)\n","      (bn3): BatchNorm2d(1024, eps=1e-05, momentum=0.1, affine=True, track_running_stats=True)\n","      (relu): ReLU(inplace=True)\n","      (downsample): Sequential(\n","        (0): Conv2d(512, 1024, kernel_size=(1, 1), stride=(2, 2), bias=False)\n","        (1): BatchNorm2d(1024, eps=1e-05, momentum=0.1, affine=True, track_running_stats=True)\n","      )\n","    )\n","    (1): Bottleneck(\n","      (conv1): Conv2d(1024, 256, kernel_size=(1, 1), stride=(1, 1), bias=False)\n","      (bn1): BatchNorm2d(256, eps=1e-05, momentum=0.1, affine=True, track_running_stats=True)\n","      (conv2): Conv2d(256, 256, kernel_size=(3, 3), stride=(1, 1), padding=(1, 1), bias=False)\n","      (bn2): BatchNorm2d(256, eps=1e-05, momentum=0.1, affine=True, track_running_stats=True)\n","      (conv3): Conv2d(256, 1024, kernel_size=(1, 1), stride=(1, 1), bias=False)\n","      (bn3): BatchNorm2d(1024, eps=1e-05, momentum=0.1, affine=True, track_running_stats=True)\n","      (relu): ReLU(inplace=True)\n","    )\n","    (2): Bottleneck(\n","      (conv1): Conv2d(1024, 256, kernel_size=(1, 1), stride=(1, 1), bias=False)\n","      (bn1): BatchNorm2d(256, eps=1e-05, momentum=0.1, affine=True, track_running_stats=True)\n","      (conv2): Conv2d(256, 256, kernel_size=(3, 3), stride=(1, 1), padding=(1, 1), bias=False)\n","      (bn2): BatchNorm2d(256, eps=1e-05, momentum=0.1, affine=True, track_running_stats=True)\n","      (conv3): Conv2d(256, 1024, kernel_size=(1, 1), stride=(1, 1), bias=False)\n","      (bn3): BatchNorm2d(1024, eps=1e-05, momentum=0.1, affine=True, track_running_stats=True)\n","      (relu): ReLU(inplace=True)\n","    )\n","    (3): Bottleneck(\n","      (conv1): Conv2d(1024, 256, kernel_size=(1, 1), stride=(1, 1), bias=False)\n","      (bn1): BatchNorm2d(256, eps=1e-05, momentum=0.1, affine=True, track_running_stats=True)\n","      (conv2): Conv2d(256, 256, kernel_size=(3, 3), stride=(1, 1), padding=(1, 1), bias=False)\n","      (bn2): BatchNorm2d(256, eps=1e-05, momentum=0.1, affine=True, track_running_stats=True)\n","      (conv3): Conv2d(256, 1024, kernel_size=(1, 1), stride=(1, 1), bias=False)\n","      (bn3): BatchNorm2d(1024, eps=1e-05, momentum=0.1, affine=True, track_running_stats=True)\n","      (relu): ReLU(inplace=True)\n","    )\n","    (4): Bottleneck(\n","      (conv1): Conv2d(1024, 256, kernel_size=(1, 1), stride=(1, 1), bias=False)\n","      (bn1): BatchNorm2d(256, eps=1e-05, momentum=0.1, affine=True, track_running_stats=True)\n","      (conv2): Conv2d(256, 256, kernel_size=(3, 3), stride=(1, 1), padding=(1, 1), bias=False)\n","      (bn2): BatchNorm2d(256, eps=1e-05, momentum=0.1, affine=True, track_running_stats=True)\n","      (conv3): Conv2d(256, 1024, kernel_size=(1, 1), stride=(1, 1), bias=False)\n","      (bn3): BatchNorm2d(1024, eps=1e-05, momentum=0.1, affine=True, track_running_stats=True)\n","      (relu): ReLU(inplace=True)\n","    )\n","    (5): Bottleneck(\n","      (conv1): Conv2d(1024, 256, kernel_size=(1, 1), stride=(1, 1), bias=False)\n","      (bn1): BatchNorm2d(256, eps=1e-05, momentum=0.1, affine=True, track_running_stats=True)\n","      (conv2): Conv2d(256, 256, kernel_size=(3, 3), stride=(1, 1), padding=(1, 1), bias=False)\n","      (bn2): BatchNorm2d(256, eps=1e-05, momentum=0.1, affine=True, track_running_stats=True)\n","      (conv3): Conv2d(256, 1024, kernel_size=(1, 1), stride=(1, 1), bias=False)\n","      (bn3): BatchNorm2d(1024, eps=1e-05, momentum=0.1, affine=True, track_running_stats=True)\n","      (relu): ReLU(inplace=True)\n","    )\n","  )\n","  (layer4): Sequential(\n","    (0): Bottleneck(\n","      (conv1): Conv2d(1024, 512, kernel_size=(1, 1), stride=(1, 1), bias=False)\n","      (bn1): BatchNorm2d(512, eps=1e-05, momentum=0.1, affine=True, track_running_stats=True)\n","      (conv2): Conv2d(512, 512, kernel_size=(3, 3), stride=(2, 2), padding=(1, 1), bias=False)\n","      (bn2): BatchNorm2d(512, eps=1e-05, momentum=0.1, affine=True, track_running_stats=True)\n","      (conv3): Conv2d(512, 2048, kernel_size=(1, 1), stride=(1, 1), bias=False)\n","      (bn3): BatchNorm2d(2048, eps=1e-05, momentum=0.1, affine=True, track_running_stats=True)\n","      (relu): ReLU(inplace=True)\n","      (downsample): Sequential(\n","        (0): Conv2d(1024, 2048, kernel_size=(1, 1), stride=(2, 2), bias=False)\n","        (1): BatchNorm2d(2048, eps=1e-05, momentum=0.1, affine=True, track_running_stats=True)\n","      )\n","    )\n","    (1): Bottleneck(\n","      (conv1): Conv2d(2048, 512, kernel_size=(1, 1), stride=(1, 1), bias=False)\n","      (bn1): BatchNorm2d(512, eps=1e-05, momentum=0.1, affine=True, track_running_stats=True)\n","      (conv2): Conv2d(512, 512, kernel_size=(3, 3), stride=(1, 1), padding=(1, 1), bias=False)\n","      (bn2): BatchNorm2d(512, eps=1e-05, momentum=0.1, affine=True, track_running_stats=True)\n","      (conv3): Conv2d(512, 2048, kernel_size=(1, 1), stride=(1, 1), bias=False)\n","      (bn3): BatchNorm2d(2048, eps=1e-05, momentum=0.1, affine=True, track_running_stats=True)\n","      (relu): ReLU(inplace=True)\n","    )\n","    (2): Bottleneck(\n","      (conv1): Conv2d(2048, 512, kernel_size=(1, 1), stride=(1, 1), bias=False)\n","      (bn1): BatchNorm2d(512, eps=1e-05, momentum=0.1, affine=True, track_running_stats=True)\n","      (conv2): Conv2d(512, 512, kernel_size=(3, 3), stride=(1, 1), padding=(1, 1), bias=False)\n","      (bn2): BatchNorm2d(512, eps=1e-05, momentum=0.1, affine=True, track_running_stats=True)\n","      (conv3): Conv2d(512, 2048, kernel_size=(1, 1), stride=(1, 1), bias=False)\n","      (bn3): BatchNorm2d(2048, eps=1e-05, momentum=0.1, affine=True, track_running_stats=True)\n","      (relu): ReLU(inplace=True)\n","    )\n","  )\n","  (avgpool): AdaptiveAvgPool2d(output_size=(1, 1))\n","  (fc): Linear(in_features=2048, out_features=100, bias=True)\n",")"]},"metadata":{},"execution_count":5}],"source":["# pick one\n","\n","# 1. model defined by yourself\n","# model = Toy_CNN()        \n","   \n","# 2. off-the-shelf model\n","# see https://pytorch.org/vision/stable/models.html\n","# nn.Linear https://pytorch.org/docs/stable/generated/torch.nn.Linear.html#torch.nn.Linear\n","model = models.resnet5
…
